SubwordTokenizer(./spm/lrs2/1000_bpe.model, case=upper, vocab=1000)
ASRDataset: 45839 samples, 734 mini-batches. batch_size: 64, batch_seconds: 256, mean batch-size: 62.45
Transformer(
  (frontend): LinearFeatureExtractionModel(
    (linear): Sequential(
      (0): Linear(in_features=80, out_features=256, bias=True)
    )
  )
  (encoder): Encoder(
    (pos_emb): Embedding(2048, 256)
    (emb_dropout): Dropout(p=0.1, inplace=False)
    (layers): ModuleList(
      (0-11): 12 x EncoderLayer(
        (norm1): LayerNorm((256,), eps=1e-05, elementwise_affine=True)
        (norm2): LayerNorm((256,), eps=1e-05, elementwise_affine=True)
        (multi_head_attn): MultiHeadAttention(
          (dropout): Dropout(p=0.0, inplace=False)
          (wq): Linear(in_features=256, out_features=256, bias=True)
          (wk): Linear(in_features=256, out_features=256, bias=True)
          (wv): Linear(in_features=256, out_features=256, bias=True)
          (W_out): Linear(in_features=256, out_features=256, bias=True)
        )
        (poswise_ffn): PoswiseFFN(
          (lin1): Linear(in_features=256, out_features=2048, bias=True)
          (lin2): Linear(in_features=2048, out_features=256, bias=True)
          (relu): ReLU(inplace=True)
          (dropout): Dropout(p=0.1, inplace=False)
        )
      )
    )
  )
  (decoder): Decoder(
    (tgt_emb): Embedding(1000, 256)
    (dropout_emb): Dropout(p=0.1, inplace=False)
    (pos_emb): Embedding(2048, 256)
    (layers): ModuleList(
      (0-5): 6 x DecoderLayer(
        (norm1): LayerNorm((256,), eps=1e-05, elementwise_affine=True)
        (norm2): LayerNorm((256,), eps=1e-05, elementwise_affine=True)
        (norm3): LayerNorm((256,), eps=1e-05, elementwise_affine=True)
        (poswise_ffn): PoswiseFFN(
          (lin1): Linear(in_features=256, out_features=2048, bias=True)
          (lin2): Linear(in_features=2048, out_features=256, bias=True)
          (relu): ReLU(inplace=True)
          (dropout): Dropout(p=0.1, inplace=False)
        )
        (dec_attn): MultiHeadAttention(
          (dropout): Dropout(p=0.0, inplace=False)
          (wq): Linear(in_features=256, out_features=256, bias=True)
          (wk): Linear(in_features=256, out_features=256, bias=True)
          (wv): Linear(in_features=256, out_features=256, bias=True)
          (W_out): Linear(in_features=256, out_features=256, bias=True)
        )
        (enc_dec_attn): MultiHeadAttention(
          (dropout): Dropout(p=0.0, inplace=False)
          (wq): Linear(in_features=256, out_features=256, bias=True)
          (wk): Linear(in_features=256, out_features=256, bias=True)
          (wv): Linear(in_features=256, out_features=256, bias=True)
          (W_out): Linear(in_features=256, out_features=256, bias=True)
        )
      )
    )
  )
  (linear): Linear(in_features=256, out_features=1000, bias=True)
)
Epoch: 01/50, Loss: 18.60
Epoch: 02/50, Loss: 7.51
Epoch: 03/50, Loss: 6.15
Epoch: 04/50, Loss: 5.76
Epoch: 05/50, Loss: 5.50
Epoch: 06/50, Loss: 5.20
Epoch: 07/50, Loss: 4.87
Epoch: 08/50, Loss: 4.57
Epoch: 09/50, Loss: 4.31
Epoch: 10/50, Loss: 4.06
Epoch: 11/50, Loss: 3.83
Epoch: 12/50, Loss: 3.62
Epoch: 13/50, Loss: 3.42
Epoch: 14/50, Loss: 3.24
Epoch: 15/50, Loss: 3.07
…
